…
    "\n",
    "\n",
    "\n"
   ]
  },
  {
   "cell_type": "code",
   "execution_count": 81,
   "metadata": {
    "collapsed": false
   },
   "outputs": [
    {
     "name": "stdout",
     "output_type": "stream",
     "text": [
      "____________________________________________________________________________________________________\n",
      "Layer (type)                     Output Shape          Param #     Connected to                     \n",
      "====================================================================================================\n",
      "lambda_3 (Lambda)                (None, 3, 224, 224)   0           lambda_input_3[0][0]             \n",
      "____________________________________________________________________________________________________\n",
      "zeropadding2d_27 (ZeroPadding2D) (None, 3, 226, 226)   0           lambda_3[0][0]                   \n",
      "____________________________________________________________________________________________________\n",
      "convolution2d_27 (Convolution2D) (None, 64, 224, 224)  1792        zeropadding2d_27[0][0]           \n",
      "____________________________________________________________________________________________________\n",
      "zeropadding2d_28 (ZeroPadding2D) (None, 64, 226, 226)  0           convolution2d_27[0][0]           \n",
      "____________________________________________________________________________________________________\n",
      "convolution2d_28 (Convolution2D) (None, 64, 224, 224)  36928       zeropadding2d_28[0][0]           \n",
      "____________________________________________________________________________________________________\n",
      "maxpooling2d_11 (MaxPooling2D)   (None, 64, 112, 112)  0           convolution2d_28[0][0]           \n",
      "____________________________________________________________________________________________________\n",
      "zeropadding2d_29 (ZeroPadding2D) (None, 64, 114, 114)  0           maxpooling2d_11[0][0]            \n",
      "____________________________________________________________________________________________________\n",
      "convolution2d_29 (Convolution2D) (None, 128, 112, 112) 73856       zeropadding2d_29[0][0]           \n",
      "____________________________________________________________________________________________________\n",
      "zeropadding2d_30 (ZeroPadding2D) (None, 128, 114, 114) 0           convolution2d_29[0][0]           \n",
      "____________________________________________________________________________________________________\n",
      "convolution2d_30 (Convolution2D) (None, 128, 112, 112) 147584      zeropadding2d_30[0][0]           \n",
      "____________________________________________________________________________________________________\n",
      "maxpooling2d_12 (MaxPooling2D)   (None, 128, 56, 56)   0           convolution2d_30[0][0]           \n",
      "____________________________________________________________________________________________________\n",
      "zeropadding2d_31 (ZeroPadding2D) (None, 128, 58, 58)   0           maxpooling2d_12[0][0]            \n",
      "____________________________________________________________________________________________________\n",
      "convolution2d_31 (Convolution2D) (None, 256, 56, 56)   295168      zeropadding2d_31[0][0]           \n",
      "____________________________________________________________________________________________________\n",
      "zeropadding2d_32 (ZeroPadding2D) (None, 256, 58, 58)   0           convolution2d_31[0][0]           \n",
      "____________________________________________________________________________________________________\n",
      "convolution2d_32 (Convolution2D) (None, 256, 56, 56)   590080      zeropadding2d_32[0][0]           \n",
      "____________________________________________________________________________________________________\n",
      "zeropadding2d_33 (ZeroPadding2D) (None, 256, 58, 58)   0           convolution2d_32[0][0]           \n",
      "____________________________________________________________________________________________________\n",
      "convolution2d_33 (Convolution2D) (None, 256, 56, 56)   590080      zeropadding2d_33[0][0]           \n",
      "____________________________________________________________________________________________________\n",
      "maxpooling2d_13 (MaxPooling2D)   (None, 256, 28, 28)   0           convolution2d_33[0][0]           \n",
      "____________________________________________________________________________________________________\n",
      "zeropadding2d_34 (ZeroPadding2D) (None, 256, 30, 30)   0           maxpooling2d_13[0][0]            \n",
      "____________________________________________________________________________________________________\n",
      "convolution2d_34 (Convolution2D) (None, 512, 28, 28)   1180160     zeropadding2d_34[0][0]           \n",
      "____________________________________________________________________________________________________\n",
      "zeropadding2d_35 (ZeroPadding2D) (None, 512, 30, 30)   0           convolution2d_34[0][0]           \n",
      "____________________________________________________________________________________________________\n",
      "convolution2d_35 (Convolution2D) (None, 512, 28, 28)   2359808     zeropadding2d_35[0][0]           \n",
      "____________________________________________________________________________________________________\n",
      "zeropadding2d_36 (ZeroPadding2D) (None, 512, 30, 30)   0           convolution2d_35[0][0]           \n",
      "____________________________________________________________________________________________________\n",
      "convolution2d_36 (Convolution2D) (None, 512, 28, 28)   2359808     zeropadding2d_36[0][0]           \n",
      "____________________________________________________________________________________________________\n",
      "maxpooling2d_14 (MaxPooling2D)   (None, 512, 14, 14)   0           convolution2d_36[0][0]           \n",
      "____________________________________________________________________________________________________\n",
      "zeropadding2d_37 (ZeroPadding2D) (None, 512, 16, 16)   0           maxpooling2d_14[0][0]            \n",
      "____________________________________________________________________________________________________\n",
      "convolution2d_37 (Convolution2D) (None, 512, 14, 14)   2359808     zeropadding2d_37[0][0]           \n",
      "____________________________________________________________________________________________________\n",
      "zeropadding2d_38 (ZeroPadding2D) (None, 512, 16, 16)   0           convolution2d_37[0][0]           \n",
      "____________________________________________________________________________________________________\n",
      "convolution2d_38 (Convolution2D) (None, 512, 14, 14)   2359808     zeropadding2d_38[0][0]           \n",
      "____________________________________________________________________________________________________\n",
      "zeropadding2d_39 (ZeroPadding2D) (None, 512, 16, 16)   0           convolution2d_38[0][0]           \n",
      "____________________________________________________________________________________________________\n",
      "convolution2d_39 (Convolution2D) (None, 512, 14, 14)   2359808     zeropadding2d_39[0][0]           \n",
      "____________________________________________________________________________________________________\n",
      "maxpooling2d_15 (MaxPooling2D)   (None, 512, 7, 7)     0           convolution2d_39[0][0]           \n",
      "____________________________________________________________________________________________________\n",
      "flatten_3 (Flatten)              (None, 25088)         0           maxpooling2d_15[0][0]            \n",
      "____________________________________________________________________________________________________\n",
      "dense_8 (Dense)                  (None, 4096)          102764544   flatten_3[0][0]                  \n",
      "____________________________________________________________________________________________________\n",
      "dropout_5 (Dropout)              (None, 4096)          0           dense_8[0][0]                    \n",
      "____________________________________________________________________________________________________\n",
      "dense_9 (Dense)                  (None, 4096)          16781312    dropout_5[0][0]                  \n",
      "____________________________________________________________________________________________________\n",
      "dropout_6 (Dropout)              (None, 4096)          0           dense_9[0][0]                    \n",
      "____________________________________________________________________________________________________\n",
      "dense_10 (Dense)                 (None, 1000)          4097000     dropout_6[0][0]                  \n",
      "====================================================================================================\n",
      "Total params: 138357544\n",
      "____________________________________________________________________________________________________\n"
     ]
    }
   ],
   "source": [
    "model.summary()"
   ]
  },
  {
   "cell_type": "code",
   "execution_count": 83,
…
    "for layers in model.layers : layers.trainable = False"
   ]
  },
  {
   "cell_type": "code",
   "execution_count": 87,
   "metadata": {
    "collapsed": false
   },
   "outputs": [
    {
     "name": "stdout",
     "output_type": "stream",
     "text": [
      "____________________________________________________________________________________________________\n",
      "Layer (type)                     Output Shape          Param #     Connected to                     \n",
      "====================================================================================================\n",
      "lambda_3 (Lambda)                (None, 3, 224, 224)   0           lambda_input_3[0][0]             \n",
      "____________________________________________________________________________________________________\n",
      "zeropadding2d_27 (ZeroPadding2D) (None, 3, 226, 226)   0           lambda_3[0][0]                   \n",
      "____________________________________________________________________________________________________\n",
      "convolution2d_27 (Convolution2D) (None, 64, 224, 224)  0           zeropadding2d_27[0][0]           \n",
      "____________________________________________________________________________________________________\n",
      "zeropadding2d_28 (ZeroPadding2D) (None, 64, 226, 226)  0           convolution2d_27[0][0]           \n",
      "____________________________________________________________________________________________________\n",
      "convolution2d_28 (Convolution2D) (None, 64, 224, 224)  0           zeropadding2d_28[0][0]           \n",
      "____________________________________________________________________________________________________\n",
      "maxpooling2d_11 (MaxPooling2D)   (None, 64, 112, 112)  0           convolution2d_28[0][0]           \n",
      "____________________________________________________________________________________________________\n",
      "zeropadding2d_29 (ZeroPadding2D) (None, 64, 114, 114)  0           maxpooling2d_11[0][0]            \n",
      "____________________________________________________________________________________________________\n",
      "convolution2d_29 (Convolution2D) (None, 128, 112, 112) 0           zeropadding2d_29[0][0]           \n",
      "____________________________________________________________________________________________________\n",
      "zeropadding2d_30 (ZeroPadding2D) (None, 128, 114, 114) 0           convolution2d_29[0][0]           \n",
      "____________________________________________________________________________________________________\n",
      "convolution2d_30 (Convolution2D) (None, 128, 112, 112) 0           zeropadding2d_30[0][0]           \n",
      "____________________________________________________________________________________________________\n",
      "maxpooling2d_12 (MaxPooling2D)   (None, 128, 56, 56)   0           convolution2d_30[0][0]           \n",
      "____________________________________________________________________________________________________\n",
      "zeropadding2d_31 (ZeroPadding2D) (None, 128, 58, 58)   0           maxpooling2d_12[0][0]            \n",
      "____________________________________________________________________________________________________\n",
      "convolution2d_31 (Convolution2D) (None, 256, 56, 56)   0           zeropadding2d_31[0][0]           \n",
      "____________________________________________________________________________________________________\n",
      "zeropadding2d_32 (ZeroPadding2D) (None, 256, 58, 58)   0           convolution2d_31[0][0]           \n",
      "____________________________________________________________________________________________________\n",
      "convolution2d_32 (Convolution2D) (None, 256, 56, 56)   0           zeropadding2d_32[0][0]           \n",
      "____________________________________________________________________________________________________\n",
      "zeropadding2d_33 (ZeroPadding2D) (None, 256, 58, 58)   0           convolution2d_32[0][0]           \n",
      "____________________________________________________________________________________________________\n",
      "convolution2d_33 (Convolution2D) (None, 256, 56, 56)   0           zeropadding2d_33[0][0]           \n",
      "____________________________________________________________________________________________________\n",
      "maxpooling2d_13 (MaxPooling2D)   (None, 256, 28, 28)   0           convolution2d_33[0][0]           \n",
      "____________________________________________________________________________________________________\n",
      "zeropadding2d_34 (ZeroPadding2D) (None, 256, 30, 30)   0           maxpooling2d_13[0][0]            \n",
      "____________________________________________________________________________________________________\n",
      "convolution2d_34 (Convolution2D) (None, 512, 28, 28)   0           zeropadding2d_34[0][0]           \n",
      "____________________________________________________________________________________________________\n",
      "zeropadding2d_35 (ZeroPadding2D) (None, 512, 30, 30)   0           convolution2d_34[0][0]           \n",
      "____________________________________________________________________________________________________\n",
      "convolution2d_35 (Convolution2D) (None, 512, 28, 28)   0           zeropadding2d_35[0][0]           \n",
      "____________________________________________________________________________________________________\n",
      "zeropadding2d_36 (ZeroPadding2D) (None, 512, 30, 30)   0           convolution2d_35[0][0]           \n",
      "____________________________________________________________________________________________________\n",
      "convolution2d_36 (Convolution2D) (None, 512, 28, 28)   0           zeropadding2d_36[0][0]           \n",
      "____________________________________________________________________________________________________\n",
      "maxpooling2d_14 (MaxPooling2D)   (None, 512, 14, 14)   0           convolution2d_36[0][0]           \n",
      "____________________________________________________________________________________________________\n",
      "zeropadding2d_37 (ZeroPadding2D) (None, 512, 16, 16)   0           maxpooling2d_14[0][0]            \n",
      "____________________________________________________________________________________________________\n",
      "convolution2d_37 (Convolution2D) (None, 512, 14, 14)   0           zeropadding2d_37[0][0]           \n",
      "____________________________________________________________________________________________________\n",
      "zeropadding2d_38 (ZeroPadding2D) (None, 512, 16, 16)   0           convolution2d_37[0][0]           \n",
      "____________________________________________________________________________________________________\n",
      "convolution2d_38 (Convolution2D) (None, 512, 14, 14)   0           zeropadding2d_38[0][0]           \n",
      "____________________________________________________________________________________________________\n",
      "zeropadding2d_39 (ZeroPadding2D) (None, 512, 16, 16)   0           convolution2d_38[0][0]           \n",
      "____________________________________________________________________________________________________\n",
      "convolution2d_39 (Convolution2D) (None, 512, 14, 14)   0           zeropadding2d_39[0][0]           \n",
      "____________________________________________________________________________________________________\n",
      "maxpooling2d_15 (MaxPooling2D)   (None, 512, 7, 7)     0           convolution2d_39[0][0]           \n",
      "____________________________________________________________________________________________________\n",
      "flatten_3 (Flatten)              (None, 25088)         0           maxpooling2d_15[0][0]            \n",
      "____________________________________________________________________________________________________\n",
      "dense_8 (Dense)                  (None, 4096)          0           flatten_3[0][0]                  \n",
      "____________________________________________________________________________________________________\n",
      "dropout_5 (Dropout)              (None, 4096)          0           dense_8[0][0]                    \n",
      "____________________________________________________________________________________________________\n",
      "dense_9 (Dense)                  (None, 4096)          0           dropout_5[0][0]                  \n",
      "____________________________________________________________________________________________________\n",
      "dropout_6 (Dropout)              (None, 4096)          0           dense_9[0][0]                    \n",
      "====================================================================================================\n",
      "Total params: 0\n",
      "____________________________________________________________________________________________________\n"
     ]
    }
   ],
   "source": [
    "model.summary()"
   ]
  },
  {
   "cell_type": "code",
   "execution_count": 88,
…
    "model.add(Dense(2, activation='softmax'))"
   ]
  },
  {
   "cell_type": "code",
   "execution_count": 89,
   "metadata": {
    "collapsed": false
   },
   "outputs": [
    {
     "name": "stdout",
     "output_type": "stream",
     "text": [
      "____________________________________________________________________________________________________\n",
      "Layer (type)                     Output Shape          Param #     Connected to                     \n",
      "====================================================================================================\n",
      "lambda_3 (Lambda)                (None, 3, 224, 224)   0           lambda_input_3[0][0]             \n",
      "____________________________________________________________________________________________________\n",
      "zeropadding2d_27 (ZeroPadding2D) (None, 3, 226, 226)   0           lambda_3[0][0]                   \n",
      "____________________________________________________________________________________________________\n",
      "convolution2d_27 (Convolution2D) (None, 64, 224, 224)  0           zeropadding2d_27[0][0]           \n",
      "____________________________________________________________________________________________________\n",
      "zeropadding2d_28 (ZeroPadding2D) (None, 64, 226, 226)  0           convolution2d_27[0][0]           \n",
      "____________________________________________________________________________________________________\n",
      "convolution2d_28 (Convolution2D) (None, 64, 224, 224)  0           zeropadding2d_28[0][0]           \n",
      "____________________________________________________________________________________________________\n",
      "maxpooling2d_11 (MaxPooling2D)   (None, 64, 112, 112)  0           convolution2d_28[0][0]           \n",
      "____________________________________________________________________________________________________\n",
      "zeropadding2d_29 (ZeroPadding2D) (None, 64, 114, 114)  0           maxpooling2d_11[0][0]            \n",
      "____________________________________________________________________________________________________\n",
      "convolution2d_29 (Convolution2D) (None, 128, 112, 112) 0           zeropadding2d_29[0][0]           \n",
      "____________________________________________________________________________________________________\n",
      "zeropadding2d_30 (ZeroPadding2D) (None, 128, 114, 114) 0           convolution2d_29[0][0]           \n",
      "____________________________________________________________________________________________________\n",
      "convolution2d_30 (Convolution2D) (None, 128, 112, 112) 0           zeropadding2d_30[0][0]           \n",
      "____________________________________________________________________________________________________\n",
      "maxpooling2d_12 (MaxPooling2D)   (None, 128, 56, 56)   0           convolution2d_30[0][0]           \n",
      "____________________________________________________________________________________________________\n",
      "zeropadding2d_31 (ZeroPadding2D) (None, 128, 58, 58)   0           maxpooling2d_12[0][0]            \n",
      "____________________________________________________________________________________________________\n",
      "convolution2d_31 (Convolution2D) (None, 256, 56, 56)   0           zeropadding2d_31[0][0]           \n",
      "____________________________________________________________________________________________________\n",
      "zeropadding2d_32 (ZeroPadding2D) (None, 256, 58, 58)   0           convolution2d_31[0][0]           \n",
      "____________________________________________________________________________________________________\n",
      "convolution2d_32 (Convolution2D) (None, 256, 56, 56)   0           zeropadding2d_32[0][0]           \n",
      "____________________________________________________________________________________________________\n",
      "zeropadding2d_33 (ZeroPadding2D) (None, 256, 58, 58)   0           convolution2d_32[0][0]           \n",
      "____________________________________________________________________________________________________\n",
      "convolution2d_33 (Convolution2D) (None, 256, 56, 56)   0           zeropadding2d_33[0][0]           \n",
      "____________________________________________________________________________________________________\n",
      "maxpooling2d_13 (MaxPooling2D)   (None, 256, 28, 28)   0           convolution2d_33[0][0]           \n",
      "____________________________________________________________________________________________________\n",
      "zeropadding2d_34 (ZeroPadding2D) (None, 256, 30, 30)   0           maxpooling2d_13[0][0]            \n",
      "____________________________________________________________________________________________________\n",
      "convolution2d_34 (Convolution2D) (None, 512, 28, 28)   0           zeropadding2d_34[0][0]           \n",
      "____________________________________________________________________________________________________\n",
      "zeropadding2d_35 (ZeroPadding2D) (None, 512, 30, 30)   0           convolution2d_34[0][0]           \n",
      "____________________________________________________________________________________________________\n",
      "convolution2d_35 (Convolution2D) (None, 512, 28, 28)   0           zeropadding2d_35[0][0]           \n",
      "____________________________________________________________________________________________________\n",
      "zeropadding2d_36 (ZeroPadding2D) (None, 512, 30, 30)   0           convolution2d_35[0][0]           \n",
      "____________________________________________________________________________________________________\n",
      "convolution2d_36 (Convolution2D) (None, 512, 28, 28)   0           zeropadding2d_36[0][0]           \n",
      "____________________________________________________________________________________________________\n",
      "maxpooling2d_14 (MaxPooling2D)   (None, 512, 14, 14)   0           convolution2d_36[0][0]           \n",
      "____________________________________________________________________________________________________\n",
      "zeropadding2d_37 (ZeroPadding2D) (None, 512, 16, 16)   0           maxpooling2d_14[0][0]            \n",
      "____________________________________________________________________________________________________\n",
      "convolution2d_37 (Convolution2D) (None, 512, 14, 14)   0           zeropadding2d_37[0][0]           \n",
      "____________________________________________________________________________________________________\n",
      "zeropadding2d_38 (ZeroPadding2D) (None, 512, 16, 16)   0           convolution2d_37[0][0]           \n",
      "____________________________________________________________________________________________________\n",
      "convolution2d_38 (Convolution2D) (None, 512, 14, 14)   0           zeropadding2d_38[0][0]           \n",
      "____________________________________________________________________________________________________\n",
      "zeropadding2d_39 (ZeroPadding2D) (None, 512, 16, 16)   0           convolution2d_38[0][0]           \n",
      "____________________________________________________________________________________________________\n",
      "convolution2d_39 (Convolution2D) (None, 512, 14, 14)   0           zeropadding2d_39[0][0]           \n",
      "____________________________________________________________________________________________________\n",
      "maxpooling2d_15 (MaxPooling2D)   (None, 512, 7, 7)     0           convolution2d_39[0][0]           \n",
      "____________________________________________________________________________________________________\n",
      "flatten_3 (Flatten)              (None, 25088)         0           maxpooling2d_15[0][0]            \n",
      "____________________________________________________________________________________________________\n",
      "dense_8 (Dense)                  (None, 4096)          0           flatten_3[0][0]                  \n",
      "____________________________________________________________________________________________________\n",
      "dropout_5 (Dropout)              (None, 4096)          0           dense_8[0][0]                    \n",
      "____________________________________________________________________________________________________\n",
      "dense_9 (Dense)                  (None, 4096)          0           dropout_5[0][0]                  \n",
      "____________________________________________________________________________________________________\n",
      "dropout_6 (Dropout)              (None, 4096)          0           dense_9[0][0]                    \n",
      "____________________________________________________________________________________________________\n",
      "dense_11 (Dense)                 (None, 2)             8194        dropout_6[0][0]                  \n",
      "====================================================================================================\n",
      "Total params: 8194\n",
      "____________________________________________________________________________________________________\n"
     ]
    }
   ],
   "source": [
    "model.summary()"
   ]
  },
  {
   "cell_type": "code",
   "execution_count": 90,
…
